model_checkpoints/model.pt (torch, 421871 bytes, 10 tensors)

structural_attn.structural_layer_0.att_l f4 [1, 16, 8]
0	0xbe52a6fc	-0.20571512
1	0xbe02a052	-0.1275647
2	0xbe38e738	-0.18056953
3	0x3e0d79e4	0.13816029
4	0xbdbc0f32	-0.09182586
5	0xbc829470	-0.015939921
6	0xbca2106e	-0.019783225
7	0x3d97566e	0.07389532
8	0xbdd2ea65	-0.102986135
9	0x3df7c305	0.12097744
10	0x3e0de124	0.13855416
11	0xbe6a2629	-0.2286612
12	0x3e2bc3b1	0.16773869
13	0x3c79bbfb	0.015242572
14	0xbe5f69f6	-0.21817765
15	0x3e1aa4cd	0.15101929
16	0x3de96108	0.1139546
17	0x3e2aa5db	0.16664831
18	0xbcb358a6	-0.021892857
19	0x3d926486	0.071480796
20	0x3b542b30	0.0032374375
21	0x3ce82115	0.028336087
22	0x3d6926e6	0.056921862
23	0xbbdb1ca4	-0.006686764
24	0x3e0d5d2c	0.13805073
25	0xbe2c9f03	-0.16857533
26	0xbe16c9a9	-0.14725365
27	0x3e4f8334	0.20264894
28	0x3db29c8c	0.08721265
29	0xbdb23af5	-0.087026514
30	0xbe7aafdb	-0.24481146
31	0xbe25aa16	-0.16178164
32	0xbd8f3ff8	-0.06994623
33	0x3c9970d0	0.018730551
34	0xbe3601a8	-0.1777407
35	0x3e04a6c8	0.12954247
36	0x3cdc827a	0.026917685
37	0xbdf69180	-0.12039471
38	0x3e8c6645	0.27421775
39	0xbe1756ca	-0.14779201
40	0xbe57d8eb	-0.21078841
41	0x3dc4b2d1	0.09604419
42	0xbd829398	-0.063758075
43	0x3b601ff8	0.0034198742
44	0x3e5b74b1	0.21431233
45	0xbe6098a2	-0.21933225
46	0xbe1dfd08	-0.15428555
47	0xbd639c07	-0.05556872
48	0xbe39d531	-0.18147732
49	0xbe3bcd22	-0.1833997
50	0xbe04f771	-0.12985016
51	0xbd93827d	-0.07202623
52	0xbcc12f81	-0.023582222
53	0x3dd13f08	0.102171004
54	0xbd6788c0	-0.0565269
55	0xbd1fb9ce	-0.038995557
56	0x3e00f83a	0.12594691
57	0x3e47aeea	0.19500318
58	0xbd96b079	-0.07357878
59	0xbe29246d	-0.16517802
60	0x3e286c2e	0.16447517
61	0x3e67b777	0.2262858
62	0x3d63b7d1	0.055595223
63	0xbe45cad2	-0.19315651
64	0xbde8f3a6	-0.11374597
65	0xbe118bf0	-0.14213538
66	0xbe49eaa4	-0.19718415
67	0x3dfd7d2d	0.12377391
68	0x3d9af8ef	0.075670116
69	0xbe78d913	-0.24301557
70	0x3e38812c	0.18018025
71	0x3b0b84df	0.0021288914
72	0xbd1ea28d	-0.03872924
73	0x3d596b8f	0.05308109
74	0x3d2f7845	0.042839307
75	0x3e05cdec	0.13066834
76	0x3dc99cbb	0.09844347
77	0x3c80395f	0.015652357
78	0x3d147334	0.03624268
79	0xbc420e69	-0.011844256
80	0x3e4f0ae6	0.20219001
81	0xbd44ffaa	-0.048095383
82	0x3e213fae	0.15746948
83	0xbdb224fe	-0.08698462
84	0xbdc0653a	-0.093943074
85	0xbcfc41d3	-0.030793106
86	0x3e359700	0.17733383
87	0xbd8b4e30	-0.068020225
88	0x3e1730e1	0.1476474
89	0xbc9db962	-0.019253436
90	0xbe499fcc	-0.19689864
91	0x3cebcaa9	0.02878316
92	0x3e09f1a4	0.13471085
93	0xbe61a7f9	-0.22036733
94	0x3e4d3e5a	0.20043316
95	0xba917151	-0.0011096393
96	0xbe897376	-0.26845902
97	0xbdbfa183	-0.09356978
98	0x3e2c51fd	0.16828151
99	0xbadbce92	-0.0016769937
100	0xbc06eb8e	-0.008234872
101	0x3d864125	0.06555394
102	0x3cead480	0.028665781
103	0x3d93f090	0.07223618
104	0xbcfc4757	-0.030795736
105	0xbdfab0fb	-0.122407876
106	0xbcb5b97e	-0.022183176
107	0xbe16127c	-0.14655489
108	0xbd92ad66	-0.071619794
109	0xbe08fdc9	-0.13378061
110	0x3d7a62f2	0.061129518
111	0xbe0aca24	-0.13553673
112	0x3e0897c5	0.13339145
113	0x3e4a3ba1	0.19749309
114	0x3e225e0b	0.15856187
115	0xbe2bf9bf	-0.1679449
116	0xbe778d6e	-0.24175045
117	0xbda76e44	-0.081753284
118	0xbcb64b70	-0.022252768
119	0x3c140cd3	0.009036261
120	0xbe26e2cc	-0.16297454
121	0xbd9787db	-0.07398959
122	0xbe1fae53	-0.15593843
123	0xbe627613	-0.22115354
124	0x3d69826c	0.057009146
125	0x3e6faa39	0.23404779
126	0xbd90195c	-0.07036087
127	0xbdbd461d	-0.09241889

structural_attn.structural_layer_0.att_r f4 [1, 16, 8]
0	0x3d675012	0.056472845
1	0xbddbf99b	-0.10740968
2	0x3dc9b102	0.09848215
3	0x3d5c3982	0.05376578
4	0x3dc9ee2e	0.09859882
5	0x3cd9ce3f	0.026587604
6	0x3dcd6f25	0.10030965
7	0x3d152aa4	0.03641762
8	0xba59b062	-0.0008304176
9	0xbe993adf	-0.29927728
10	0x3d320612	0.04346282
11	0xbd30e9c3	-0.043191683
12	0x3d95c0d4	0.0731217
13	0xbe28ee68	-0.16497195
14	0xbe391356	-0.18073782
15	0xbd15e6f0	-0.036597192
16	0x3cf0b6d9	0.029384064
17	0x3e158717	0.14602314
18	0x3e30fe85	0.17284591
19	0x3e5bd572	0.21468142
20	0xbe2ca413	-0.16859464
21	0x3e3527ff	0.17691039
22	0xbd4ce4b3	-0.050022792
23	0x3d199a06	0.037500404
24	0x3c6fe39f	0.014641671
25	0x3e10201e	0.14074752
26	0xbe6e5085	-0.23272903
27	0x3e35d667	0.17757569
28	0x3e22f5bd	0.15914054
29	0xbdca6077	-0.098816805
30	0xbe8897c1	-0.2667828
31	0xbe1471e9	-0.14496578
32	0xbdc0d94e	-0.094164476
33	0x3d7d88c3	0.061898004
34	0x3e5f76d3	0.21822672
35	0x3e23bf46	0.15990934
36	0xbdd72450	-0.10504973
37	0xbe06e4b3	-0.1317318
38	0xbe7bec18	-0.24601781
39	0x3da6b535	0.08140031
40	0x3daa9cff	0.08330726
41	0x3e5fd5f8	0.21858966
42	0x3e18b455	0.14912541
43	0xbb2d4f5c	-0.0026445007
44	0xbdc859dd	-0.09782765
45	0xbdf28d3d	-0.11843345
46	0x3ded0058	0.11572331
47	0x3dc59374	0.09647265
48	0xbd7b2a47	-0.061319616
49	0xbd8ea801	-0.06965638
50	0x3d5710ad	0.052506138
51	0xbe45de16	-0.19323
52	0xbdf93793	-0.12168803
53	0xbe2f55b1	-0.17122532
54	0xbdaec008	-0.08532721
55	0x3d7f11de	0.0622729
56	0xbe65d4b2	-0.22444418
57	0xbcd22dce	-0.025656607
58	0x3d258ad1	0.04041559
59	0xbd99da78	-0.07512373
60	0x3d82898d	0.06373892
61	0x3e16070f	0.1465113
62	0x3c2c5db7	0.01052039
63	0x3e34f54f	0.17671703
64	0xbe81eae8	-0.25374532
65	0x3dfd1cdd	0.12359021
66	0xbd15e590	-0.03659588
67	0x3db8444b	0.08997401
68	0xbe206dd4	-0.15666896
69	0xbcdc1c36	-0.02686892
70	0xbd126687	-0.03574231
71	0xbe3df9cc	-0.18552321
72	0x3d95399e	0.0728638
73	0xbe98f0d9	-0.29871252
74	0x3d170c90	0.036877215
75	0xbdd4f416	-0.10398118
76	0x3e89857e	0.2685966
77	0xbd6e09b8	-0.058114737
78	0x3db06c3c	0.08614394
79	0x3de09cc2	0.10967399
80	0x3dcb8ee6	0.09939365
81	0xbdb5d85d	-0.08879159
82	0xbd3784c9	-0.04480437
83	0xbdba5978	-0.09099096
84	0xbde4640e	-0.111518964
85	0x3e5673ac	0.20942563
86	0xbe84a813	-0.2590948
87	0xbcf71d6e	-0.0301654
88	0x3ac619a7	0.0015113846
89	0x3dcbc9f7	0.09950631
90	0x3e1a219b	0.15051882
91	0x3df4cdca	0.11953314
92	0x3e9ff380	0.31240463
93	0xbd7534b7	-0.059864726
94	0xbd0f7205	-0.035020847
95	0xbe00a931	-0.12564541
96	0x3dca4b7a	0.09877677
97	0x3dd8d388	0.105872214
98	0x3e078e00	0.13237762
99	0xbe4a234c	-0.19740027
100	0x3e11bc59	0.14232005
101	0x3e3e4ddb	0.18584387
102	0xbe3d826a	-0.1850678
103	0xbe65e791	-0.22451617
104	0x3e1f62fd	0.15565105
105	0x3d6ef64c	0.058340356
106	0xbd2d9d1b	-0.042386156
107	0x3d949b79	0.072562166
108	0xbe1cdadf	-0.15317868
109	0xbe591f60	-0.21203375
110	0x3ca96597	0.020678325
111	0x3e2f082e	0.17092964
112	0xbddbe797	-0.10737532
113	0xbcd5ecf4	-0.026113965
114	0x3e1a1e3b	0.15050595
115	0xbcf02881	-0.029316189
116	0x3de37ed6	0.111081764
117	0xbe651dfa	-0.22374716
118	0x3c95318b	0.0182121
119	0x3d2857c1	0.041099314
120	0x3dccf69e	0.10007976
121	0xbd420430	-0.047367275
122	0xbb03f197	-0.0020133012
123	0xbe0f47d4	-0.13992244
124	0x3c869347	0.01642765
125	0xbe517906	-0.20456323
126	0x3cb5a11a	0.022171546
127	0x3d17e2da	0.037081577

structural_attn.structural_layer_0.lin.weight f4 [128, 143]
0	0xbbb7e198	-0.0056116097
1	0xbdb212af	-0.0869497
2	0xbdae4d71	-0.085108645
3	0xbd8c19c3	-0.06840851
4	0xbddce035	-0.107849516
5	0x3b2bf588	0.0026238877
6	0xbcce1934	-0.025158502
7	0x3c631d9e	0.013862042
8	0x3d81178f	0.063033216
9	0x3cc909e6	0.024540853
10	0xbdd83f6b	-0.10558971
11	0xbc1766f5	-0.009240855
12	0xbe12230c	-0.14271182
13	0x3e041187	0.12897311
14	0x3dbf0499	0.09327049
15	0xbe02dc52	-0.12779358
16	0xbd29ad03	-0.041424762
17	0xbcf0a187	-0.029373897
18	0x3ce62d25	0.028097698
19	0xbcb2f640	-0.021845937
20	0xbd142ab5	-0.03617354
21	0x3d143a08	0.036188155
22	0xbe13a39f	-0.14417885
23	0x3d254bc6	0.040355466
24	0xbcd82796	-0.026386064
25	0x3c1a353c	0.009412106
26	0xbe1e3ff3	-0.15454082
27	0xbd86f314	-0.06589332
28	0x3c72e7c6	0.014825767
29	0x3c18bb1e	0.009321956
30	0xbde30ad5	-0.110860504
31	0xbe158257	-0.14600502
32	0xbde6b39d	-0.11264727
33	0xbe17d907	-0.14828883
34	0xbd03fd2f	-0.032223877
35	0xbd72ce23	-0.05927862
36	0xbe03a13e	-0.12854478
37	0xbdd23d68	-0.102656186
38	0x3d015d79	0.031583283
39	0xbdc7538c	-0.09732732
40	0xbcfb0bd3	-0.030645287
41	0xbdb0ab2e	-0.086264
42	0xbd1195ae	-0.035543136
43	0xbd95e195	-0.07318417
44	0xbd8c700f	-0.06857311
45	0xbd13925e	-0.03602826
46	0xbcc6428a	-0.02420165
47	0xbdb214cd	-0.08695374
48	0xbdd9e3a8	-0.10639125
49	0xbdf34376	-0.118781015
50	0x3c07c1ad	0.008285922
51	0xbdfc9c0c	-0.12334451
52	0xbd954720	-0.07288957
53	0xbdf4d228	-0.119541466
54	0xbc9a302e	-0.018821802
55	0x3c131fd0	0.008979753
56	0xbc3ec880	-0.011644483
57	0xbd1f1c69	-0.038845453
58	0x3d496c9d	0.049175847
59	0xbd3e4640	-0.046453714
60	0xbd9286d7	-0.07154625
61	0x3c279be2	0.010230036
62	0xbdc719e2	-0.09721734
63	0xbd053a7a	-0.03252647
64	0xbd8c3836	-0.06846659
65	0xbd802213	-0.06256499
66	0x3a86ca89	0.0010283749
67	0xbe045d6c	-0.12926263
68	0x3daf3e18	0.08556765
69	0x3cf14f37	0.029456718
70	0x3d290255	0.04126199
71	0xbd234a4b	-0.039865773
72	0x3d6f83d7	0.05847534
73	0x3cad398c	0.021145605
74	0x3c4b027a	0.012390727
75	0x3d0d5565	0.034505267
76	0x3cad7ece	0.02117863
77	0xbd6d17a2	-0.057883866
78	0xbd986b01	-0.074422844
79	0xbd0dd1bb	-0.034623843
80	0xbda7d783	-0.081954025
81	0xbe0344c4	-0.12819201
82	0xbd6b5512	-0.057454176
83	0x3b806d0e	0.0039192503
84	0xbb8a1739	-0.004214194
85	0xbe0259f6	-0.1272963
86	0xbdc1ad50	-0.09456885
87	0xbdb2baf7	-0.08727067
88	0x3d1d50ab	0.03840701
89	0x3d62dcfa	0.05538652
90	0xbcde513e	-0.027138349
91	0xbe23fa55	-0.16013463
92	0xbd26c18f	-0.040711936
93	0x3b6db969	0.0036273843
94	0xbdc05ffc	-0.093933076
95	0xbde02efb	-0.10946461
96	0x3d116e32	0.03550548
97	0x3ce4c2dd	0.02792495
98	0xbd9de6d1	-0.0771004
99	0xbe3762f9	-0.17908849
100	0xbe0bd218	-0.13654363
101	0xbd2bbc1a	-0.041927435
102	0xbd3a8633	-0.04553814
103	0xbd904e1e	-0.0704615
104	0xbd06db7a	-0.032924153
105	0x3d9c9a56	0.07646625
106	0xbe0fb0f6	-0.14032349
107	0xbd222b95	-0.039592344
108	0xbd1b9f0c	-0.037993476
109	0x3d80b7ce	0.06285058
110	0xbd1cd9f2	-0.038293786
111	0x3da9bc3c	0.08287856
112	0x3ca6a1dc	0.020340852
113	0xbe15820b	-0.14600389
114	0xbcf7b843	-0.03023923
115	0x3df0a31b	0.1174986
116	0xbc3953a5	-0.011311446
117	0x3dea26cc	0.11433181
118	0x3d3beb14	0.045878485
119	0x3ca11193	0.0196617
120	0x3e2319a1	0.15927745
121	0x3df50688	0.11964136
122	0x3ddafd89	0.10692889
123	0x3d8e6900	0.06953621
124	0x3deaaf35	0.11459199
125	0xbdf155b3	-0.11783924
126	0xbe0e756e	-0.13911983
127	0x3d9650e7	0.0733965
128	0x3e02dc26	0.12779292
129	0x3e19ed07	0.15031825
130	0xbd8e9288	-0.06961542
131	0x3de0240d	0.10944376
132	0x3e0f3364	0.13984448
133	0x3d341c38	0.043972224
134	0x3de042ec	0.10950264
135	0x3aa89c5f	0.0012863985
136	0x3d3c2ea2	0.04594291
137	0x3d8b1627	0.067913346
138	0x3dbdbc4c	0.092644304
139	0x3def5784	0.11686614
140	0x3e0b91e7	0.13629876
141	0xbd3a43cb	-0.04547481
142	0xbd100d7d	-0.035169113
143	0x3da71354	0.081579834
144	0xbc89a41f	-0.016801892
145	0xbd2517c6	-0.040305875
146	0x3d995f56	0.07488887
147	0xbd88d9cb	-0.06682166
148	0x3dbafef2	0.09130658
149	0x3d5f8d5e	0.054578178
150	0x3d2f80e0	0.042847514
151	0x3c0315ff	0.00800085
152	0xbc785253	-0.015156346
153	0x3d816acf	0.063192
154	0x3de0513d	0.10952995
155	0xbc505cfe	-0.012717484
156	0x3d01b9f6	0.031671487
157	0xbd66275e	-0.056189887
158	0xbd5ea9a8	-0.054361016
159	0x3d004a83	0.03132106
160	0xbdebdacb	-0.11516341
161	0xbcdf7fa5	-0.027282545
162	0xbdb97d3a	-0.09057088
163	0x3be5347d	0.0069947825
164	0x3b98e80c	0.004666334
165	0x3d8bb743	0.06822064
166	0x3de47aee	0.111562595
167	0xbc85c780	-0.01633048
168	0x3dc83402	0.09775545
169	0xbd53c94b	-0.05170564
170	0xbd86bedf	-0.065793745
171	0xbd700dc7	-0.05860689
172	0xbc95bb4d	-0.018277789
173	0x3d10d39e	0.035358064
174	0x3de5d2cf	0.11221849
175	0x3e208200	0.15674591
176	0x3d4478c6	0.04796674
177	0x3d1811e2	0.03712643
178	0xbb9c2204	-0.004764797
179	0x3d840f83	0.06448271
180	0x3bca86d6	0.0061806245
181	0xbdb14185	-0.08655075
182	0x3d3f99cb	0.046777528
183	0x3d8f866a	0.07008059
184	0xbcb6daf5	-0.022321204
185	0x3c06c1a3	0.0082248775
186	0xbce6ed4b	-0.028189322
187	0x3da2d534	0.079508215
188	0xbd245989	-0.04012445
189	0x3d855699	0.06510658
190	0x3cb67927	0.022274567
191	0xbde14423	-0.10999324
192	0x3ddb498a	0.10707386
193	0xbdcc4e97	-0.09975927
194	0x3d0aea7a	0.03391502
195	0xbdd96972	-0.10615815
196	0xbdf6defe	-0.12054251
197	0xbd2a8e55	-0.041639645
198	0x3e0f375e	0.13985965
199	0x3d0610f2	0.032731004
200	0x3d1d844d	0.03845625
201	0x3c660d03	0.014041188
202	0x3c81299a	0.015766907
203	0xbe1412ed	-0.14460345
204	0xbd759afe	-0.059962265
205	0xbe0b11a6	-0.13580951
206	0xbd7436e9	-0.05962268
207	0x3d9dcf66	0.07705574
208	0xbc8e4062	-0.017364684
209	0x3c72b723	0.014814171
210	0xbdb8f920	-0.09031892
211	0xbe0ad620	-0.13558245
212	0x3e1a5780	0.15072441
213	0x3d021291	0.031755988
214	0xbdbf7e45	-0.09350256
215	0xbd4935cb	-0.049123567
216	0xbd9d79d9	-0.07689256
217	0x3d099350	0.033587754
218	0x3da916a9	0.08256275
219	0x3c246c0b	0.010035525
220	0xbd3aa142	-0.045563944
221	0xb8434725	-4.655788e-05
222	0xbd96a6a4	-0.07356003
223	0xbd883f7d	-0.066527344
224	0x3ddad698	0.10685462
225	0x3aed1669	0.0018088344
226	0x3e076887	0.13223468
227	0x3d47aa76	0.04874655
228	0x3c4087d9	0.011751139
229	0x3c8d6eb2	0.017264698
230	0xbd5093f7	-0.05092236
231	0xbb33b281	-0.002741963
232	0x3d85306a	0.06503375
233	0xbdcf1b85	-0.10112671
234	0xbd3a95b3	-0.04555292
235	0x3dbbe3f5	0.09174339
236	0x3d305e18	0.043058485
237	0x3daed1c2	0.08536102
238	0x3db4f59a	0.08835907
239	0xbd8f7161	-0.07004047
240	0xbd8dcc35	-0.06923715
241	0x3dde52ad	0.10855613
242	0xbcaf66e8	-0.021411374
243	0x3de709ba	0.11281152
244	0x3d6871d8	0.056749195
245	0x3e0c32ac	0.13691205
246	0x3dba1474	0.090859324
247	0xbc75b803	-0.014997485
248	0xbd511c16	-0.051052175
249	0x3e10ae2f	0.14128946
250	0xbdaa7968	-0.08323938
251	0xbd6b9fcc	-0.05752544
252	0x3c0b73b3	0.008511472
253	0x3e24d015	0.16095002
254	0xbc36eeb8	-0.011165313
255	0xbd013de1	-0.031553153

structural_attn.structural_layer_0.lin_residual.weight f4 [128, 143]
0	0xbde58801	-0.11207581
1	0xbd525ab6	-0.05135604
2	0xbcf5748f	-0.029962806
3	0x3d676643	0.05649401
4	0xbcbc0264	-0.022950359
5	0xbbfb9341	-0.007677466
6	0x3cca11d1	0.024666699
7	0xbcecabbd	-0.028890485
8	0x3d71d1ce	0.059037976
9	0x3d17e4b0	0.037083328
10	0xbbb0f922	-0.0054007927
11	0xbd49dd5b	-0.049283367
12	0x3c13fec4	0.009032909
13	0x3d9243e9	0.07141859
14	0x3d429448	0.047504693
15	0xbdeb5111	-0.114900716
16	0xbd76689b	-0.060158353
17	0xbca38090	-0.019958764
18	0x3c1e9bd6	0.009680709
19	0x3d12914a	0.03578309
20	0xbdffef74	-0.12496844
21	0xbd608a6a	-0.054819502
22	0xbc91db01	-0.017804625
23	0x3dd0e6d8	0.1020028
24	0x3d573442	0.05254007
25	0x3cdffeb4	0.027343132
26	0xbe2420c2	-0.16028121
27	0xbe0f0fa3	-0.13970809
28	0xbd7e8efa	-0.06214807
29	0xbdbf6b63	-0.09346654
30	0xbdaf9226	-0.085727975
31	0xbc21fed5	-0.009887417
32	0xbe039024	-0.12847954
33	0xbd8a2804	-0.067459136
34	0xbcc8bb9f	-0.024503527
35	0xbd972f94	-0.07382122
36	0xbdb4c474	-0.08826533
37	0x3c2876a8	0.010282196
38	0x3bce6f84	0.006299915
39	0x3d45f2bc	0.048327193
40	0xbdbca6c8	-0.092114985
41	0x3c7148ee	0.01472686
42	0xbd91d84c	-0.071213335
43	0x3dabf869	0.0839699
44	0xbdf1c59b	-0.118052684
45	0xbb88ad55	-0.0041710534
46	0xbdab7f68	-0.0837391
47	0x3ce2a334	0.027665712
48	0xbdf35b9b	-0.11882707
49	0x3cb7cb6a	0.022435863
50	0xbd2cf529	-0.04222599
51	0xbd3bc908	-0.045846015
52	0xbe0a220d	-0.13489552
53	0xbdab537d	-0.083655335
54	0xbb053d7c	-0.0020330837
55	0x3c912043	0.017715579
56	0xbdb6e88e	-0.08931075
57	0xbdda0d26	-0.10647039
58	0x3d3ec45c	0.04657398
59	0xbe2036bb	-0.15645878
60	0xbd0d1dac	-0.034452125
61	0xbccad66a	-0.024760444
62	0xbdc4a1c8	-0.0960117
63	0xbe24e0d9	-0.16101398
64	0xbd50da76	-0.05098959
65	0x3db5e616	0.08881776
66	0xbc6bfa16	-0.014402887
67	0xbdee59dd	-0.11638234
68	0x3def9c4a	0.11699732
69	0xbd2843a0	-0.041080117
70	0x3b6f1dd3	0.0036486282
71	0xbd86fd8d	-0.0659133
72	0xbd3301a0	-0.04370272
73	0x3c97bfcf	0.018524079
74	0xbd776014	-0.06039436
75	0xbd816242	-0.06317569
76	0xbddac5ed	-0.106822826
77	0xbbe36e38	-0.0069406293
78	0xbdb21aed	-0.08696542
79	0xbd6007f8	-0.0546951
80	0xbd4140cc	-0.047180936
81	0xbd975f7a	-0.073912576
82	0xbb813a61	-0.003943727
83	0xbc70d45c	-0.014699068
84	0xbe2f4c5d	-0.17118974
85	0xbd20c6e1	-0.039252166
86	0x3c3254ca	0.010884473
87	0xbb5d97e3	-0.0033812455
88	0x3c9c6513	0.019091165
89	0x3da5f885	0.08104042
90	0x3d802f0c	0.062589735
91	0xbdef5838	-0.11686748
92	0xbd31e57a	-0.043431737
93	0xbd43c320	-0.047793508
94	0xbd321435	-0.043476302
95	0xbd29bc4f	-0.04143935
96	0x3ba1c708	0.0049370565
97	0x3d380297	0.044924345
98	0x3b198986	0.0023427918
99	0xbcb3e1ab	-0.021958193
100	0xbd791158	-0.060807556
101	0xbdc76d6e	-0.09737669
102	0x3bcbb360	0.0062164515
103	0x3cd15444	0.025552876
104	0x3ce637b7	0.028102739
105	0x3bc08312	0.005875
106	0xbdad177b	-0.08451744
107	0xbd9714e5	-0.07377032
108	0x3d38df2f	0.04513472
109	0x3e046153	0.12927751
110	0xbdbc2087	-0.091858916
111	0x3d716ced	0.05894177
112	0x3ba6da79	0.005091962
113	0xbdb893fe	-0.09012602
114	0xbcfdaabf	-0.030965207
115	0x3d929cf1	0.071588404
116	0xbdbb9845	-0.091599025
117	0x3d204c10	0.03913504
118	0x3e2b199e	0.16708991
119	0x3d27d85b	0.040977817
120	0x3e242148	0.16028321
121	0x3d43237f	0.047641274
122	0x3e255560	0.16145849
123	0x3e0def34	0.1386078
124	0x3d027dc9	0.03185824
125	0xbd2bf7a7	-0.041984227
126	0xbb727373	-0.0036995083
127	0x3db72943	0.08943417
128	0x3cc59ddf	0.02412313
129	0x3df8a163	0.12140157
130	0xbdedf06c	-0.116181225
131	0x3e037edc	0.12841362
132	0x3e0c9112	0.13727215
133	0x3ce92dcd	0.028464222
134	0x3e2f2455	0.17103703
135	0x3dfafb29	0.12254936
136	0x3dece6bb	0.11567446
137	0x3dcdcb2f	0.1004852
138	0x3d169992	0.03676755
139	0x3da16438	0.07880443
140	0x3db7f78f	0.08982765
141	0x3d16fffa	0.036865212
142	0xbd6ab2b6	-0.05729934
143	0x3ce8eb2c	0.028432451
144	0x3d019c77	0.031643357
145	0x3d652361	0.055941943
146	0xbc7b076d	-0.015321595
147	0xbd03c0d0	-0.032166302
148	0x3cfe02e5	0.03100724
149	0x3d2afa61	0.041742686
150	0x3c32d1ca	0.010914275
151	0xbb77b179	-0.003779499
152	0x3dd8342a	0.105568245
153	0x3d51f3ea	0.051258005
154	0x3d29849a	0.041386224
155	0xbda6b9a9	-0.081408806
156	0xbc50af47	-0.012737102
157	0x3b3a34ab	0.002841274
158	0xbc525600	-0.012837887
159	0x3d2e9d77	0.04263064
160	0xbdad9354	-0.08475366
161	0xbc9f0f3b	-0.019416442
162	0xbd8cfe47	-0.06884437
163	0x3db307c1	0.08741713
164	0xbd9008e0	-0.07032943
165	0x3d9461b3	0.07245197
166	0xbc4a95df	-0.012364834
167	0x3db14d05	0.086572684
168	0x3d7076f4	0.058707193
169	0xbc320099	-0.0108644
170	0x3ce19a7f	0.02753949
171	0xbd7a4e31	-0.061109725
172	0xbd33c369	-0.04388753
173	0xbd0a52e4	-0.033770457
174	0x3e034ce2	0.12822297
175	0x3da6476a	0.0811909
176	0xbcccad7b	-0.024985066
177	0xbd364139	-0.044495795
178	0x3d8e90e1	0.06961227
179	0xbc3f0d04	-0.011660818
180	0xbbd48848	-0.0064859726
181	0xbd8edf08	-0.069761336
182	0xbc5e6a7f	-0.013575195
183	0x3db0b2e2	0.08627869
184	0x3d16a0f2	0.036774583
185	0xbd75624f	-0.059908208
186	0xba202c18	-0.0006110086
187	0x3b746569	0.003729189
188	0x3d81c536	0.06336443
189	0xbccede2a	-0.02525242
190	0xbd0e722d	-0.034776855
191	0xbd599449	-0.05311993
192	0x3d9b4239	0.0758099
193	0xbd08708b	-0.033310454
194	0xbd58d4e1	-0.052937392
195	0xbdefa8d9	-0.11702127
196	0xbdb0d75b	-0.08634826
197	0xbcc29fe3	-0.02375788
198	0x3da38dd7	0.07986038
199	0xbe04d5eb	-0.12972228
200	0xbd287e4f	-0.041136082
201	0xbd71b739	-0.059012625
202	0x3d8f807e	0.0700693
203	0xbdd7eebd	-0.105435826
204	0xbe06d6f4	-0.13167936
205	0xbd942da0	-0.07235265
206	0x3cfb7a6f	0.03069803
207	0x3d0e3be1	0.034725074
208	0x3dc4f8e6	0.09617786
209	0x3aa4bf7e	0.0012569276
210	0xbc1cc7de	-0.009569136
211	0xbe0b1cc0	-0.13585186
212	0x3e17f3f9	0.14839162
213	0xbd7c19ad	-0.061547924
214	0xbba401f1	-0.0050051142
215	0x3ce4bf34	0.027923204
216	0xbd2f6897	-0.042824354
217	0xbacfedd6	-0.0015863727
218	0x3db83bac	0.089957565
219	0x3d904372	0.07044114
220	0xbd29e299	-0.041475866
221	0xbe17981d	-0.1480412
222	0x3c92d562	0.017924014
223	0xbd649485	-0.0558057
224	0xbd1d9a7b	-0.038477402
225	0xbdbdf08e	-0.09274398
226	0x3e23720d	0.15961476
227	0x3d0c7437	0.03429052
228	0x3d880a13	0.066425465
229	0x3df5a7c0	0.119948864
230	0xbd1df474	-0.038563207
231	0x3d8f9100	0.070100784
232	0x3d50b19e	0.05095064
233	0xbc8f7ecb	-0.017516514
234	0x3cdc8a4f	0.02692142
235	0x3d9c00a0	0.07617307
236	0x3ddece53	0.10879197
237	0x3d8d75e0	0.069072485
238	0x3c0a8016	0.00845339
239	0x3d003d0e	0.031308226
240	0x3c97ae14	0.018515624
241	0x3dffa6a2	0.124829546
242	0xbda652a8	-0.08121234
243	0x3df82f80	0.12118435
244	0x3dbedf49	0.09319932
245	0x3dcb6d01	0.099329
246	0x3dcc73dc	0.09983036
247	0xbac746e1	-0.0015203619
248	0xbc774df1	-0.015094266
249	0x3d3ea496	0.04654368
250	0x3c4793d0	0.012181237
251	0xbdd57698	-0.104230106
252	0x3c901c03	0.017591482
253	0x3e17b987	0.14816867
254	0x3d442c33	0.047893714
255	0xbdd0dcd8	-0.101983726

temporal_attn.temporal_layer_0.position_embeddings f4 [16, 128]
0	0xbd289404	-0.041156784
1	0x3c6371ed	0.0138821425
2	0xb9c97870	-0.0003842744
3	0x3ded94f4	0.11600676
4	0xbdb3c196	-0.08777158
5	0xbd0a0f02	-0.03370572
6	0xbdb405bc	-0.08790156
7	0xbd73b27a	-0.05949638
8	0x3bf9835a	0.0076145353
9	0xbcf07a92	-0.029355321
10	0xbe02cc4f	-0.1277325
11	0xbca91fad	-0.020644987
12	0xbc8b3739	-0.016994106
13	0xbdfe7de9	-0.12426359
14	0xbce624c3	-0.028093701
15	0xbd309ee2	-0.043120272
16	0xbd783ad5	-0.06060298
17	0x3d0a178a	0.033713855
18	0xbba1959b	-0.0049311644
19	0x3c78da17	0.015188715
20	0x3d533dc3	0.051572572
21	0x3d8e9881	0.069626816
22	0x3deb238b	0.11481389
23	0x3da4334d	0.08017597
24	0x3dbec919	0.093157
25	0xbdece4ba	-0.11567064
26	0xbdebaa90	-0.115071416
27	0xbdbee88c	-0.093216985
28	0x3b364206	0.002781035
29	0xbca48a82	-0.020085577
30	0xbd9bacbd	-0.076013066
31	0x3d34b16f	0.044114526
32	0x3d3c7c22	0.04601682
33	0xbdf41360	-0.11917758
34	0xbdab17a7	-0.08354121
35	0xbe0d8ce3	-0.13823275
36	0x3c97d325	0.018533299
37	0xbdca4bbf	-0.09877729
38	0x3b971fde	0.004611953
39	0xbde91b63	-0.11382177
40	0xbda79b3c	-0.081839055
41	0x3d035ebd	0.03207277
42	0xbc8227a0	-0.015888035
43	0xbdb09154	-0.08621469
44	0xbd6baaf0	-0.057536066
45	0xbdfaa030	-0.122375846
46	0x3da38fc0	0.079864025
47	0x3da772ab	0.08176168
48	0x3cbd0391	0.02307299
49	0xbe02b97a	-0.12766066
50	0xbd2d432e	-0.042300396
51	0x3deb9626	0.11503248
52	0x3dd1c335	0.10242311
53	0x3dcb8fee	0.09939562
54	0xbcb2ba8e	-0.021817472
55	0xbdfe3f72	-0.12414445
56	0x3cfc347e	0.030786749
57	0xbdb81b2c	-0.089895576
58	0xbdb8b132	-0.09018172
59	0x3c158330	0.009125516
60	0x3cd43e75	0.025908688
61	0x3d21f78a	0.039542712
62	0x3baeecf0	0.0053383037
63	0x3d189d6a	0.037259497
64	0x3c1bc5bc	0.009507593
65	0xbd0985e2	-0.033574946
66	0xbdc109ca	-0.09425695
67	0xbcc32a6a	-0.023823936
68	0x3d107ee6	0.03527727
69	0x3df6c0a9	0.12048466
70	0x3c351cd5	0.011054237
71	0xbdea7bd3	-0.11449399
72	0x3cbd1659	0.023081945
73	0xbc5dd0f6	-0.01353859
74	0x3d3093bb	0.043109637
75	0xbc3d113c	-0.0115397535
76	0xbe041e39	-0.12902154
77	0x3d27060b	0.040777247
78	0xbcb88465	-0.022524068
79	0xbd327670	-0.043569982
80	0x3df5815b	0.11987563
81	0xbd73b959	-0.059502933
82	0x3c1d0fc1	0.009586276
83	0x3c9fed62	0.019522373
84	0xbc0b6cd6	-0.008509835
85	0x3ddfe379	0.10932059
86	0x3dbb87dc	0.091567725
87	0xbd83fa7d	-0.06444261
88	0x3d214739	0.039374564
89	0x3b9b71ea	0.004743804
90	0xbdc25f02	-0.094907776
91	0x3c72803e	0.014801083
92	0x3aa1ce32	0.0012344776
93	0xbc7e8004	-0.015533451
94	0xbcea69e8	-0.028614953
95	0xbddb895e	-0.1071956
96	0xbdda0896	-0.10646169
97	0x3d9cfdf9	0.07665629
98	0xbd7bafc6	-0.061446927
99	0xbe00635a	-0.125379
100	0xbcc6eb9c	-0.02428227
101	0xbdd0d1c7	-0.10196262
102	0xbd177821	-0.0369798
103	0xbd5ad48f	-0.053425368
104	0x3de22b2c	0.11043391
105	0x3cae353d	0.02126562
106	0xbda89ecf	-0.08233415
107	0xbb0fc95f	-0.0021940095
108	0x3dd5a0c2	0.10431053
109	0x3dd08acc	0.101827234
110	0x3d9d3359	0.076758094
111	0x3dbfe2dc	0.09369442
112	0xbd45189e	-0.04811918
113	0xbd3a240c	-0.045444533
114	0xbc9fb97e	-0.01949763
115	0xbe0dffe4	-0.13867146
116	0x3d4856f1	0.04891104
117	0xbcffc8c2	-0.031223658
118	0xbcbb494c	-0.0228621
119	0x3cc65d64	0.024214454
120	0xbc4c641a	-0.012475038
121	0x3dc1bc0e	0.09459697
122	0xbb856378	-0.0040706955
123	0xbd807b61	-0.06273533
124	0x3c9d4065	0.019195745
125	0xbce0f132	-0.02745876
126	0x3e042c45	0.12907512
127	0xbc028398	-0.007965945
128	0x3cacfbfe	0.021116253
129	0x3d15f82d	0.036613632
130	0xbe02274a	-0.127103
131	0xbdd34e45	-0.10317663
132	0x3dd9ac7e	0.106286034
133	0xbd387cc8	-0.045040876
134	0x3d5e3aac	0.054255173
135	0xbd43d226	-0.047807835
136	0xbdb76972	-0.08955659
137	0xbd1d75be	-0.038442366
138	0xbdc77148	-0.097384036
139	0x3d42fd23	0.04760469
140	0x3d8de906	0.06929211
141	0xbbce2ed7	-0.006292205
142	0x3c636109	0.013878115
143	0x3cc33465	0.023828695
144	0xbd13b93f	-0.036065336
145	0x3d761aa2	0.060083993
146	0xbdbbe956	-0.09175365
147	0xbc3e2743	-0.01160604
148	0xbdd4b46a	-0.10385974
149	0xbe15e85d	-0.14639421
150	0x3d4d54cc	0.050129697
151	0xbe293bd3	-0.16526727
152	0xbd9ec23f	-0.07751893
153	0xbdb8a5dc	-0.0901601
154	0xbd05b42e	-0.032642536
155	0x3dbca368	0.09210855
156	0xbcdda38a	-0.02705552
157	0x3e03eef5	0.12884124
158	0x3dc5cc4b	0.096581064
159	0xbd58889c	-0.052864656
160	0xbdc02960	-0.09382892
161	0xbce84504	-0.028353222
162	0xbd8acd14	-0.06777397
163	0x3db856eb	0.09000953
164	0xbd82f2d5	-0.06393973
165	0xbd94fdc9	-0.07274968
166	0x3d4a073c	0.049323305
167	0x3d0b4ff1	0.034011785
168	0x3d3601fa	0.04443548
169	0x3d6ba3af	0.057529148
170	0x3d777130	0.06041068
171	0x3e1fe17a	0.15613356
172	0xbdcd5719	-0.10026378
173	0x3cce0281	0.025147678
174	0x3dbcc3ea	0.09217055
175	0x3deff019	0.11715717
176	0x3da9ef23	0.08297565
177	0xbce1b65e	-0.02755278
178	0xbd86b3a8	-0.065772355
179	0x3d934cee	0.071924075
180	0xbd36adf3	-0.044599485
181	0xbde43577	-0.1114301
182	0x3c8e4b29	0.017369824
183	0xbd2ee8f4	-0.04270263
184	0xbd7a723f	-0.06114411
185	0xbd5a63b2	-0.053317733
186	0xbe1acad7	-0.1511644
187	0xbde664c6	-0.1124969
188	0xbd75ac62	-0.05997885
189	0x3d4a7f9c	0.049438104
190	0xbc8ff43a	-0.017572511
191	0x3dd0c9b9	0.101947255
192	0xbd64416e	-0.05572646
193	0xbcfdc023	-0.030975407
194	0x3db4f8d3	0.08836522
195	0xbc48586c	-0.012228113
196	0xbc8afaa6	-0.016965222
197	0x3c36d5de	0.011159388
198	0xbb069d9f	-0.0020540727
199	0xbd0505d3	-0.032476258
200	0xbda92e2f	-0.08260762
201	0xbd4e313a	-0.050339915
202	0x3e086148	0.1331836
203	0xbdced31c	-0.1009886
204	0x3da5b230	0.08090627
205	0xbdee6843	-0.1164098
206	0x3d85e1ef	0.06537234
207	0xbde3bce6	-0.11120014
208	0xbc92c98a	-0.017918367
209	0x3dc359c8	0.09538609
210	0xbdd067c8	-0.10176045
211	0x3aa1ee93	0.0012354426
212	0xbdd351ff	-0.10318374
213	0x3d9b323d	0.075779416
214	0xbdb86b90	-0.09004891
215	0xbaf28037	-0.0018501346
216	0x3d93727c	0.071995705
217	0x3ca41a58	0.020032093
218	0xbd871d54	-0.06597391
219	0xbce55723	-0.027995652
220	0x3bd42db1	0.0064751734
221	0xbd891a2b	-0.06694444
222	0xbd9ec23c	-0.07751891
223	0xbce9e7db	-0.02855294
224	0x3dd32592	0.103099
225	0xbd3ea007	-0.046539333
226	0x3ba7e6c2	0.005123944
227	0x3cb58823	0.022159642
228	0xbd20fa22	-0.039301045
229	0x3ccd55ef	0.02506539
230	0xbcc664e0	-0.024218023
231	0xbd73734e	-0.059436135
232	0xbd31b9d0	-0.043390095
233	0xbdc16ca4	-0.0944455
234	0x3d7b2118	0.061310858
235	0x3b90430f	0.0044025253
236	0xbd4ca5a2	-0.049962647
237	0xbdb31469	-0.08744127
238	0x3d9bd537	0.07609027
239	0x3ddb8674	0.10719004
240	0x3cee13a8	0.029062107
241	0xbc30a827	-0.010782278
242	0xbdca82aa	-0.098882034
243	0x3c4b05bb	0.012391503
244	0xbcfc08ed	-0.030765975
245	0xbd142892	-0.036171503
246	0xbc443509	-0.011975535
247	0xbdf89ddd	-0.12139485
248	0xbdd67ffb	-0.10473629
249	0x3ddf00ed	0.108888485
250	0xbda5b166	-0.08090477
251	0x3b9f6917	0.0048648226
252	0x3d7e31e9	0.062059317
253	0xbc8e505d	-0.017372305
254	0x3dda12b0	0.106480956
255	0xbdd2f2d1	-0.1030022

temporal_attn.temporal_layer_0.Q_embedding_weights f4 [128, 128]
0	0xbc954853	-0.018222963
1	0xbd478ed4	-0.048720196
2	0x3d3232f8	0.04350564
3	0x3cc7a1de	0.024369176
4	0xbd95565c	-0.07291862
5	0x3df7064c	0.12061748
6	0xbda86958	-0.08223218
7	0xbd58d658	-0.05293879
8	0x3bf8af2a	0.0075892406
9	0x3dbbbb8b	0.0916663
10	0xbe7e2e30	-0.24822307
11	0x3d5dc24d	0.054140378
12	0xbe4bffb2	-0.19921759
13	0xbe3887bf	-0.18020533
14	0x3e4c94a7	0.19978581
15	0xbd778ece	-0.060438924
16	0x3c7899ef	0.015173419
17	0xbe6229a2	-0.22086194
18	0xbe1a7f9a	-0.15087739
19	0x3e0da114	0.13830978
20	0x3df37f2a	0.11889489
21	0x3d24e742	0.040259607
22	0x3e171c99	0.14757003
23	0xbd2622e6	-0.040560625
24	0x3b402f12	0.002932493
25	0x3dbcf30d	0.09226046
26	0xbe09bda2	-0.13451245
27	0x3df25319	0.11832256
28	0xbd9969d9	-0.07490892
29	0x3e4e816a	0.20166555
30	0xbde482f5	-0.111577906
31	0x3b838aa3	0.0040143295
32	0x3dffaf40	0.12484598
33	0x3e22a498	0.158831
34	0xbd74920b	-0.05970959
35	0xbe05387f	-0.13009833
36	0xbd85d30e	-0.06534396
37	0x3d89fb1d	0.06737349
38	0x3d0834f7	0.033253636
39	0x3d7b325d	0.061327327
40	0xbcc769fb	-0.024342528
41	0x3e34aaff	0.17643355
42	0xbdc68d63	-0.09694936
43	0x3d799050	0.060928643
44	0x3d2b768a	0.041861095
45	0xbe165b5e	-0.14683291
46	0xbd38cddd	-0.0451182
47	0x3d270e6a	0.04078523
48	0xbdda4f66	-0.10659675
49	0xbe612182	-0.21985438
50	0x3e40bcf0	0.18822074
51	0x3e5f90e5	0.21832617
52	0x3db9faa6	0.090810105
53	0xbd62378b	-0.05522875
54	0x3e3d6af0	0.18497825
55	0x3e575d27	0.21031629
56	0xbe230822	-0.15921071
57	0x3d60400f	0.05474859
58	0x3d04e7f5	0.032447774
59	0xbe29e7e5	-0.16592367
60	0xbdc12cab	-0.09432348
61	0xbe053c50	-0.13011289
62	0xbe44e049	-0.19226183
63	0xbd80f289	-0.0629626
64	0x3e7b68c5	0.24551685
65	0x3ceff154	0.029289879
66	0x3e2dce6e	0.16973278
67	0x3e1a30c5	0.15057667
68	0xbd628d38	-0.055310458
69	0xbcb59e86	-0.022170316
70	0xbc8b874e	-0.017032292
71	0xbe432342	-0.19056419
72	0xbe5b3a9f	-0.21409081
73	0xbe02184c	-0.12704581
74	0x3c061f35	0.008186151
75	0x3e289527	0.16463147
76	0xbd05d6d5	-0.032675583
77	0x3d1977f6	0.03746792
78	0xbde811af	-0.11331498
79	0xbd59991d	-0.053124536
80	0x3ddada55	0.10686175
81	0xbd60a9e5	-0.054849524
82	0xbd16748e	-0.03673225
83	0xbd8cc6a9	-0.06873829
84	0xbc9f6d2d	-0.019461239
85	0x3e0428de	0.12906215
86	0x3e17c8bd	0.1482267
87	0x3dfb0479	0.122567125
88	0xbdeb0f00	-0.114774704
89	0x3d8c1c39	0.068413205
90	0x3d46b967	0.048516657
91	0x3d82cfe8	0.06387311
92	0x3dbb8869	0.091568775
93	0x3c5456d7	0.012960157
94	0x3e6aaa47	0.22916518
95	0xbd0b1e71	-0.033964578
96	0xbe05a1b8	-0.13049972
97	0xbe00dc00	-0.12583923
98	0xbe263227	-0.16230069
99	0xbd3adeee	-0.04562276
100	0x3c927507	0.017878069
101	0x3d8413b7	0.06449073
102	0xbdcdc735	-0.10047761
103	0x3e0d3c90	0.13792634
104	0xbe2fd24c	-0.17170066
105	0x3958cdc0	0.00020676013
106	0x3e1ffd10	0.1562388
107	0xbde9db43	-0.11418774
108	0x3bc533c5	0.0060181343
109	0x3dcb5377	0.09928029
110	0x3dfaed5b	0.12252303
111	0xbda645df	-0.081187956
112	0xbdc070bc	-0.093965024
113	0x3d86b7de	0.06578039
114	0xbe46a12e	-0.19397423
115	0xbdfc1b25	-0.12309865
116	0xbe238090	-0.15967011
117	0x3d9c0d5b	0.07619735
118	0xbc90fa37	-0.017697437
119	0x3e017eb5	0.12645991
120	0xbdc779d6	-0.09740035
121	0xbb9fac42	-0.0048728297
122	0xbdcb4108	-0.09924513
123	0x3b7a22c4	0.0038167695
124	0x3bdfc3c9	0.0068287593
125	0x3dc32d23	0.095300935
126	0xbe320cde	-0.17387721
127	0xbe27795d	-0.1635489
128	0xbe0a9ec2	-0.13537124
129	0xbd988ecb	-0.074491106
130	0x3da7fe80	0.08202839
131	0x3d0b0bfb	0.033946972
132	0x3d6a43f0	0.057193696
133	0xbcef2ffe	-0.02919769
134	0xbcae03b1	-0.021241995
135	0x3d141797	0.03615531
136	0x3e3d88a4	0.18509156
137	0x3ddc3468	0.10752183
138	0xbde5cb8d	-0.11220465
139	0xbd37e901	-0.044899944
140	0x3d279ed6	0.040922962
141	0xbe6684f2	-0.22511652
142	0x3d2d5996	0.042321764
143	0xbc85ef41	-0.016349437
144	0xbdb7a77d	-0.08967493
145	0x3e01e10c	0.12683505
146	0x3d8d65d6	0.06904189
147	0x3d55375d	0.05205475
148	0x3d8417ae	0.06449829
149	0x3e650b06	0.22367486
150	0xbcc7d793	-0.024394786
151	0xbe5e5e06	-0.21715555
152	0xbd35294f	-0.044228848
153	0x3d174a81	0.036936287
154	0x3ce007f0	0.027347535
155	0x3d449680	0.04799509
156	0x3de09bb4	0.10967198
157	0x3e442f59	0.19158687
158	0x3d2810c0	0.0410316
159	0x3de87ddf	0.11352133
160	0xbde16916	-0.11006372
161	0x3d6c67d5	0.05771621
162	0x3dbbee25	0.09176282
163	0x3d8fd2be	0.07022618
164	0xbde2ab24	-0.11067799
165	0xbe27043c	-0.16310209
166	0xbddbe5ea	-0.10737212
167	0x3c5d6755	0.013513406
168	0xbd5d7f41	-0.054076437
169	0xbd102c84	-0.035198703
170	0xbd1809ba	-0.03711865
171	0x3d8419b1	0.06450213
172	0xbdebe8a9	-0.11518986
173	0x3d094941	0.033517126
174	0xbe78b9ed	-0.24289675
175	0xbdb6f76b	-0.0893391
176	0x3d611fec	0.054962084
177	0xbe1a566e	-0.15072033
178	0xbd22c2a4	-0.039736405
179	0xbd6c9090	-0.057755053
180	0x3dc752fe	0.097326264
181	0x3d5c6d6b	0.053815287
182	0xbe0f37f3	-0.13986187
183	0xbc0d633a	-0.0086296145
184	0x3dbe957a	0.09305854
185	0xbe085bef	-0.1331632
186	0x3d3d417a	0.04620502
187	0xbdb08705	-0.08619503
188	0x3dbd4bb0	0.09242952
189	0xbb29e705	-0.0025925052
190	0xbdff810a	-0.12475784
191	0xbde95137	-0.113924436
192	0x3c0a78f6	0.008451691
193	0x3d960dc9	0.07326848
194	0x3cbb4aa9	0.02286275
195	0x3cf27284	0.02959562
196	0x3d867448	0.06565148
197	0x3d9be381	0.07611752
198	0x3da2eb0b	0.07954987
199	0xbe79ffd6	-0.24414
200	0xbdbcad0f	-0.09212696
201	0xbe098312	-0.13428906
202	0x3c796742	0.0152223725
203	0x3d666f91	0.05625874
204	0xbe0dae1e	-0.13835952
205	0xbde8f9ae	-0.113757476
206	0xbd875b03	-0.06609156
207	0x3deff774	0.1171712
208	0xbd56ba81	-0.052423958
209	0xbd0bdc1e	-0.034145467
210	0x3e2cf38f	0.16889785
211	0x3d01d575	0.03169771
212	0x3ccac136	0.024750333
213	0xbe07ab3c	-0.13248914
214	0x3dc74bdc	0.09731266
215	0xbe22dc0e	-0.15904257
216	0x3cb1c1fe	0.021698948
217	0xbc9fc6ab	-0.019503912
218	0x3d6f4fde	0.058425777
219	0xbe29c0b7	-0.16577421
220	0xbe7e2b22	-0.24821141
221	0xbd1b2039	-0.037872527
222	0x3ce3e300	0.027818203
223	0x3d305599	0.043050382
224	0x3dccd1df	0.10000967
225	0xbd6d86f3	-0.057990026
226	0x3de814f1	0.11332119
227	0x3e5d0be5	0.21586569
228	0xbe2ba790	-0.16763139
229	0x3d349b85	0.044093627
230	0xbe827701	-0.25481418
231	0x3d9f0b2f	0.07765805
232	0xbd4d1556	-0.050069176
233	0xbaed6a3c	-0.0018113325
234	0x3d117381	0.035510544
235	0x3e569c80	0.20958138
236	0x3cf6fc4d	0.030149603
237	0xbd203741	-0.039115194
238	0xbda7578b	-0.08170994
239	0x3e196899	0.14981307
240	0x3cedbd9d	0.029021079
241	0xbd99dd48	-0.07512909
242	0xbcc0e0fc	-0.02354478
243	0xbe33803f	-0.17529391
244	0x3d483ca0	0.04888594
245	0x3c13a0b6	0.009010484
246	0x3cf4c378	0.029878363
247	0x3db2fb87	0.08739381
248	0xbe164880	-0.14676094
249	0xbda5284b	-0.08064326
250	0xbd28fac4	-0.041254774
251	0x3e08bd53	0.13353471
252	0x3e4bece6	0.19914588
253	0x3d57278a	0.05252794
254	0xbccd4cbe	-0.025061008
255	0xbddbb85d	-0.10728524

temporal_attn.temporal_layer_0.K_embedding_weights f4 [128, 128]
0	0xbe2e0e2b	-0.16997592
1	0x3d818b82	0.06325437
2	0xbe50fd26	-0.20409068
3	0x3d7aaa64	0.061197653
4	0xbcf5ca10	-0.030003577
5	0xbe415bf8	-0.1888274
6	0xbe425777	-0.18978678
7	0x3cc44837	0.023960216
8	0xbdf55436	-0.119789526
9	0xbd4244f9	-0.04742906
10	0x3dad9342	0.08475353
11	0xbe079b90	-0.13242936
12	0xbe0fe8c3	-0.14053635
13	0xbdc8f7e5	-0.09812907
14	0x3e50b0e9	0.20379986
15	0x3d9a5cb5	0.07537214
16	0xbc9061ce	-0.017624762
17	0x3e6383bd	0.22218223
18	0x3df7dae6	0.121022984
19	0xbd3133fa	-0.04326246
20	0xbb9f452c	-0.004860541
21	0xbe306a8b	-0.17228143
22	0x3de45883	0.11149695
23	0x3e2c7787	0.16842471
24	0xbd8de888	-0.069291174
25	0xbdbcb76b	-0.09214672
26	0xbe15904b	-0.14605825
27	0x3e017d37	0.12645422
28	0x3e188c2f	0.14897226
29	0xbd8b0b37	-0.067892484
30	0x3d133e17	0.035947885
31	0x3d87e71f	0.0663588
32	0xbd046fef	-0.03233331
33	0x3c97f919	0.018551396
34	0xbe84af7c	-0.25915134
35	0xbda5123c	-0.080601186
36	0xbe35f980	-0.17770958
37	0x3db9713d	0.090548016
38	0xbe120a14	-0.14261657
39	0x3daf35bc	0.08555171
40	0xbd06af11	-0.0328818
41	0xbd0079f7	-0.031366315
42	0xbcac739c	-0.02105122
43	0x3e25149c	0.16121143
44	0x3d66c673	0.0563416
45	0x3e07bef3	0.13256435
46	0xbdabd983	-0.083910964
47	0xbd4e7003	-0.05039979
48	0x3dfca71d	0.12336562
49	0xbca7b946	-0.020474087
50	0xbd990169	-0.07470972
51	0xbd79926f	-0.060930666
52	0x3d6b20e3	0.05740441
53	0x3e0fc704	0.14040762
54	0x3d7b4b70	0.06135124
55	0x3c36ff70	0.0111692995
56	0xbd2b1427	-0.041767266
57	0xbd410e7f	-0.047132965
58	0x3d65db89	0.05611757
59	0x3c853744	0.016261704
60	0xbd2d528c	-0.04231505
61	0xbd1b2337	-0.03787538
62	0x3d877400	0.06613922
63	0x3dd6cf31	0.104887374
64	0x3c442b1f	0.0119731715
65	0xbd9f7d56	-0.07787578
66	0x3e1055da	0.1409525
67	0x3dfa084d	0.122086145
68	0xbd4cc9a1	-0.049996976
69	0xbd3923ed	-0.045200277
70	0xbe5cbf9d	-0.2155747
71	0x3def3365	0.116797246
72	0xbc8e04ec	-0.017336331
73	0xbd665085	-0.056229133
74	0xbd285c05	-0.04110338
75	0xbd98f4db	-0.074685775
76	0xbe37c1dd	-0.17945047
77	0xbc87c16f	-0.016571729
78	0x3e1116ff	0.14168929
79	0xbe0407f5	-0.1289366
80	0x3cf3fdcd	0.029784108
81	0xbe46d41b	-0.1941685
82	0xbe6f816d	-0.23389216
83	0xbe2f3598	-0.17110288
84	0x3e1c6e37	0.15276419
85	0x3e095f5e	0.13415286
86	0x3da3c596	0.07996671
87	0x3dbecf82	0.09316923
88	0xbe1dcc93	-0.1541007
89	0x3e817da3	0.25291166
90	0x3e338636	0.17531666
91	0x3dbb7c8b	0.09154614
92	0x3e581abe	0.21103951
93	0x3cb82ff4	0.022483803
94	0x3d9ffc6e	0.07811819
95	0x3c08e97b	0.008356447
96	0x3d8c5245	0.06851629
97	0x3ce332a5	0.02773411
98	0x3e79c13f	0.24390124
99	0x3d84508a	0.06460674
100	0xbe34e32d	-0.17664786
101	0xbe125da6	-0.14293537
102	0xbe3909ad	-0.18070097
103	0x3c860ecc	0.016364478
104	0x3d10a318	0.03531179
105	0x3e3a3c2a	0.18187013
106	0x3e32a5f8	0.17446125
107	0xbdba050e	-0.09082995
108	0xbd50c5a3	-0.05096973
109	0xbdf973f1	-0.12180317
110	0x3dc27379	0.09494681
111	0xbe26d0a9	-0.16290535
112	0x3cb13170	0.021630019
113	0xbcec03d6	-0.028810423
114	0xbe00e228	-0.12586272
115	0x3cbf172f	0.023326484
116	0xbdcce61d	-0.10004828
117	0x3c918bb6	0.017766815
118	0x3d668e89	0.056288276
119	0x3a9864e5	0.0011626749
120	0xbe209a61	-0.15683891
121	0xbe0b6ac0	-0.1361494
122	0xbd715f3b	-0.05892871
123	0xbd48e4b3	-0.04904623
124	0xbe0fb66a	-0.14034429
125	0xbdd4698a	-0.103716925
126	0x3da84047	0.08215385
127	0x3da68a5e	0.0813186
128	0xbe708f62	-0.23492196
129	0x3e4d9e71	0.20079972
130	0xbe085e82	-0.13317302
131	0xbcf34373	-0.029695248
132	0x3d6e4fde	0.058181636
133	0xbd3050cc	-0.043045804
134	0xbe1001e7	-0.14063226
135	0x3e01a601	0.12660982
136	0x3e6d6768	0.23183978
137	0x3c45dc11	0.012076394
138	0xbe6ca9f7	-0.23111711
139	0xbd80a964	-0.06282309
140	0xbe593022	-0.21209767
141	0xbe45c450	-0.19313169
142	0x3e545022	0.20733693
143	0xbd2f4abc	-0.04279588
144	0xbbb78e92	-0.0056017125
145	0x3dfe87bd	0.12428234
146	0x3e06c2ed	0.13160296
147	0x3dd4e305	0.10394863
148	0xbe24c309	-0.16090025
149	0xbd373169	-0.044724856
150	0x3e2c389f	0.16818474
151	0x3e593c41	0.21214391
152	0xbc835046	-0.016029488
153	0x3bc8328f	0.0061095427
154	0xbd71c552	-0.05902607
155	0xbe231493	-0.15925817
156	0xbdfd3805	-0.123642005
157	0xbe11a6d6	-0.14223799
158	0x3e15b62e	0.14620277
159	0xbdd15f23	-0.10223224
160	0xbcde0c14	-0.027105369
161	0xbd496540	-0.049168825
162	0x3e2d0f9b	0.16900484
163	0xbd234ac9	-0.039866243
164	0xbe1965d4	-0.1498025
165	0x3e18b598	0.14913023
166	0xbe809175	-0.25110975
167	0x3c38372f	0.011243626
168	0xbdf702a0	-0.120610476
169	0x3d5cd45f	0.05391347
170	0x3d1519c2	0.036401518
171	0x3e104332	0.14088133
172	0xbd1ecfc1	-0.03877235
173	0xbe503f0c	-0.2033655
174	0xbaac897a	-0.001316353
175	0x3d28d2d0	0.04121667
176	0xbd012f98	-0.03153953
177	0xbd54a1b5	-0.05191203
178	0x3e167965	0.14694746
179	0xbce33485	-0.027735004
180	0xbd9b18f0	-0.07573116
181	0x3b20b668	0.0024522785
182	0x3d7ccff7	0.06172177
183	0xbd1b2e94	-0.037886217
184	0x3c540e46	0.012942856
185	0x3d768be5	0.060192008
186	0xbcc34907	-0.023838533
187	0x3d70dfe8	0.058807284
188	0x3d1de9af	0.038552936
189	0xbe449e9e	-0.19201133
190	0xbe046d30	-0.12932277
191	0x3d3f75b9	0.04674313
192	0x3c861f54	0.01637236
193	0x3e08c14c	0.13354987
194	0x3dd67cf3	0.10473051
195	0x3e1aaf72	0.1510599
196	0xbae9c379	-0.0017834745
197	0x3e2e9636	0.17049488
198	0x3dd1d182	0.102450386
199	0xbe18c4c1	-0.14918806
200	0x3dea5d28	0.114435494
201	0x3dc292dd	0.09500668
202	0xbd1c3ca4	-0.03814377
203	0x3dda908b	0.10672101
204	0xbe3b23d3	-0.18275385
205	0xbd0c33ed	-0.034229208
206	0xbe199535	-0.14998324
207	0x3c7ee3d2	0.015557246
208	0x3d7ea813	0.062172007
209	0xbdd6fdb9	-0.104976125
210	0xbdc22fb8	-0.09481758
211	0xbe846308	-0.25856805
212	0xbae3f4ac	-0.0017391643
213	0x3cb124e5	0.021624038
214	0x3e4c1ccd	0.19932862
215	0xbbabcfc7	-0.005243275
216	0xbdb4f474	-0.08835688
217	0xbb33f689	-0.0027460179
218	0x3e00bed8	0.12572801
219	0x3c7953f0	0.015217766
220	0x3e38d6be	0.18050668
221	0xbe48cceb	-0.1960942
222	0x3e42e8ea	0.19034162
223	0x3a0f91da	0.00054767507
224	0xbc17edc5	-0.009272997
225	0x3d517826	0.051139973
226	0xbc445345	-0.011982744
227	0x3e3aa5b1	0.18227269
228	0xbd3d8f66	-0.046279334
229	0x3d599237	0.053117957
230	0xbe2474d3	-0.1606019
231	0x3e1ae3d5	0.15125974
232	0x3e04c8b7	0.12967192
233	0x3e04ef3c	0.12981886
234	0xbce0e940	-0.027454972
235	0x3ddb5240	0.10709047
236	0xbcfa6d06	-0.030569565
237	0x3d8a2d32	0.067469016
238	0x3e0149d7	0.12625824
239	0xbc80d974	-0.01572869
240	0xbdc33792	-0.095320836
241	0xbda4e6b6	-0.08051817
242	0xbd5fd835	-0.05464955
243	0xbe30b9f4	-0.17258435
244	0xbe3b83a7	-0.1831194
245	0xbc863862	-0.016384307
246	0x3d997b2f	0.074941985
247	0x3e7b043f	0.24513339
248	0x3e31c225	0.17359217
249	0x3d4a6db8	0.049421042
250	0xbd3ae044	-0.045624033
251	0x3d392228	0.04519859
252	0x3d892c3f	0.066978924
253	0xbd9766b1	-0.07392634
254	0xbde5adea	-0.11214812
255	0xbd74a7f1	-0.059730474

temporal_attn.temporal_layer_0.V_embedding_weights f4 [128, 128]
0	0xbe1cd2c6	-0.15314779
1	0x3da04d52	0.07827248
2	0xbccb8cc3	-0.024847394
3	0xbd6b7e72	-0.057493635
4	0x3d954b80	0.07289791
5	0xbdab9eed	-0.08379922
6	0x3d44a66c	0.048010275
7	0x3d3665b4	0.044530585
8	0xbe1e801b	-0.15478556
9	0xbe2d9a17	-0.16953312
10	0xbc7fe4b5	-0.015618493
11	0xbe549c70	-0.20762801
12	0x3bf17686	0.0073688654
13	0xbd715047	-0.05891445
14	0xbd99083b	-0.07472273
15	0x3dd9865d	0.10621331
16	0x3dade680	0.0849123
17	0x3e58fa41	0.21189214
18	0xbd2561ce	-0.040376477
19	0x3df0ec7a	0.11763854
20	0x3df3af11	0.11898626
21	0x3d453235	0.048143584
22	0xbdc48d90	-0.095973134
23	0xbe00ee11	-0.12590815
24	0x3e0d2b0f	0.13785957
25	0xbe2cdbd0	-0.16880727
26	0x3dd0bf41	0.10192729
27	0xbdfb94f5	-0.12284271
28	0xbdbf9a38	-0.09355587
29	0x3cc03b8e	0.023465898
30	0x3d655131	0.055985633
31	0xbd5a4c34	-0.05329533
32	0x3e12b064	0.143251
33	0x3c5bcec0	0.013415992
34	0xbd2e8505	-0.042607326
35	0xbdb1234e	-0.08649312
36	0xbca6c5d5	-0.020358006
37	0xbda22901	-0.07917977
38	0x3e1bdd8c	0.15221232
39	0x3d8a47eb	0.067519985
40	0xbbb961ac	-0.0056573953
41	0x3e45760e	0.19283316
42	0x3de5e1f0	0.11224735
43	0xbda216a6	-0.07914476
44	0x3af15a5a	0.0018413768
45	0xbd8a7c26	-0.06761961
46	0xbd9a6156	-0.075380966
47	0xbda894c7	-0.08231502
48	0x3e326da1	0.17424633
49	0x3dbcadef	0.09212863
50	0xbe05f027	-0.13079892
51	0xbc9023ef	-0.01759526
52	0x3e08ce37	0.13359915
53	0xbb33be1d	-0.0027426549
54	0x3bda85c0	0.0066687763
55	0x3d2f3ae4	0.04278077
56	0x3c9e5f89	0.019332664
57	0x3dff975d	0.12480042
58	0x3cdceea2	0.026969258
59	0xbcee8fb2	-0.029121254
60	0xbbdfdeb7	-0.0068319696
61	0xbdd4fef8	-0.10400194
62	0x3d9700ff	0.07373237
63	0xbe095696	-0.13411936
64	0xbd4187a3	-0.047248494
65	0x3ded3a5b	0.11583396
66	0x3ced9ac2	0.029004458
67	0x3dcf90df	0.10135054
68	0x3c22fa4c	0.009947371
69	0xbe60179d	-0.21884008
70	0xbe156b75	-0.14591773
71	0x3de4c363	0.111700796
72	0xbd85f93c	-0.06541678
73	0xbdfbbebf	-0.12292241
74	0x3db86e63	0.090054296
75	0x3e20297e	0.15640828
76	0x3dac73c0	0.08420515
77	0x3ce3ed46	0.027823102
78	0x3c82b8ef	0.015957324
79	0xbc050692	-0.008119242
80	0x3db37fcf	0.08764612
81	0xbd9f87bb	-0.077895604
82	0x3d2a945e	0.0416454
83	0x3bac7b95	0.0052637556
84	0xbd2a4f8b	-0.041579764
85	0xbd5e8740	-0.054328203
86	0xbd052910	-0.032509863
87	0xbd399d45	-0.045316
88	0x3e256155	0.1615041
89	0xbd710ec1	-0.05885196
90	0x3cf195ed	0.029490435
91	0x3db630be	0.088960156
92	0x3d1a6c63	0.037701022
93	0x3dd5c340	0.104376316
94	0xbc9b0b43	-0.018926268
95	0xbc79733f	-0.015225231
96	0xbe3f136d	-0.18659754
97	0xbdde9b40	-0.10869455
98	0xbda418e2	-0.080125585
99	0xbdc4b8ee	-0.09605585
100	0x3d7caedf	0.061690208
101	0xbe38099e	-0.17972419
102	0xbd498b35	-0.049205024
103	0xbdd422af	-0.10358178
104	0x3e11eb3a	0.14249888
105	0xbd3fe873	-0.04685254
106	0x3c6f7a13	0.014616507
107	0x3d524358	0.051333755
108	0x3dd4d127	0.10391455
109	0x3e000a14	0.12503844
110	0x3d368c07	0.044567134
111	0x3d80bad1	0.062856324
112	0xbdc990f2	-0.09842099
113	0x3e59f0b4	0.21283227
114	0xbda0fc6a	-0.07860644
115	0x3ddc76a4	0.107648164
116	0x3d9868a8	0.074418366
117	0xbcb56015	-0.022140542
118	0x3e0711a4	0.13190323
119	0x3b498dea	0.0030754753
120	0xbe36a424	-0.17836052
121	0xbdd9f56d	-0.106425144
122	0x3d3e2146	0.04641845
123	0xbe2c0f5f	-0.16802739
124	0x3d615621	0.05501378
125	0xbcc6459c	-0.024203114
126	0xbd31b099	-0.043381307
127	0x3e17cc6c	0.14824075
128	0xbd532ad7	-0.051554527
129	0xbdd85f92	-0.105651036
130	0x3d8788ab	0.06617864
131	0x3dbc57d7	0.091964416
132	0x3ded1324	0.115759164
133	0xbdd87e4a	-0.10570963
134	0x3d22b1dc	0.0397204
135	0x3e2bc577	0.16774546
136	0xbb7647ef	-0.0037579497
137	0xbd6a880d	-0.057258654
138	0xbd4ebe23	-0.050474297
139	0xbddb4cbe	-0.10707997
140	0xbe51b3f9	-0.2047881
141	0x3c31636f	0.0108269295
142	0x3dab0f06	0.08352475
143	0x3dfdda0f	0.12395107
144	0xbd6f4929	-0.05841938
145	0xbe205d08	-0.15660489
146	0xbb63016c	-0.0034638299
147	0x3c9f432f	0.019441215
148	0x3dda3abf	0.10655736
149	0xbd28bc96	-0.041195475
150	0x3dfac343	0.122442745
151	0x3ad6d1aa	0.0016389389
152	0x3cee06b0	0.029055923
153	0x3bf730f1	0.007543676
154	0xbe1cac4d	-0.15300103
155	0xbd859b99	-0.065238185
156	0x3d516315	0.051119883
157	0xbda95276	-0.08267681
158	0xbd9c017a	-0.07617469
159	0x3e22873f	0.15871905
160	0x3dc534f0	0.09629238
161	0xbdca5ffc	-0.09881589
162	0xbddc15f4	-0.10746375
163	0xbe0e1a3e	-0.13877198
164	0xbd578ebd	-0.05262636
165	0xbe15e6fd	-0.14638896
166	0xbe559ce9	-0.20860638
167	0x3daa4b0b	0.083150946
168	0xbdbc1336	-0.09183352
169	0xbd238460	-0.039921165
170	0xbe071904	-0.13193136
171	0xbd5c48c0	-0.053780317
172	0xbc7e951b	-0.015538479
173	0xbd60a023	-0.05484022
174	0x3debe5d2	0.11518444
175	0xbe20d566	-0.15706405
176	0x3cf8ec89	0.030386226
177	0x3dd9c60d	0.10633478
178	0xbd9934fd	-0.0748081
179	0xbd524c18	-0.0513421
180	0x3dd754c5	0.105142154
181	0x3d2d3eb0	0.04229611
182	0xbe16a0dc	-0.147098
183	0xbe240869	-0.16018833
184	0xbc180ff1	-0.0092811445
185	0xbdca4c29	-0.09877808
186	0x3b7c9f75	0.0038547192
187	0x3d57c7cb	0.05268077
188	0x3d7b1572	0.06129975
189	0xbcce4f44	-0.025184281
190	0xbdfbb638	-0.12290615
191	0x3d6f7034	0.058456615
192	0x3d4a383f	0.049370047
193	0xbde11b38	-0.1099152
194	0xbe1d8b22	-0.15385106
195	0x3d765112	0.06013591
196	0x3e0a000e	0.13476583
197	0xbda1a5ac	-0.078929275
198	0x3e3b3e93	0.18285589
199	0xbdd27927	-0.10277014
200	0x3e0e88ee	0.13919422
201	0x3e454074	0.19262868
202	0xbd104aca	-0.035227574
203	0x3cda6083	0.026657348
204	0xbb2120e7	-0.0024586262
205	0xbc1fa6af	-0.00974433
206	0xbdaf5269	-0.0856064
207	0x3e3a5fc0	0.18200588
208	0xbdd789ca	-0.10524328
209	0xbd5cad14	-0.053875998
210	0xbc8a6baa	-0.016897041
211	0xbc10363a	-0.008801991
212	0x3e0c8331	0.1372192
213	0x3de44037	0.111450605
214	0x3e1946d4	0.14968425
215	0xbddc8800	-0.107681274
216	0x3d72051b	0.0590869
217	0x3e202337	0.15638433
218	0xbda99af9	-0.08281512
219	0x3cef46c4	0.029208548
220	0xbd40222f	-0.0469076
221	0x3e1b646b	0.15175025
222	0x3cac9eca	0.02107181
223	0xbdf91f0d	-0.121641256
224	0x3d52d4aa	0.051472344
225	0x3dd11b53	0.1021029
226	0xbe2d86c2	-0.16945937
227	0xbe15fc41	-0.14647008
228	0xbd3e9790	-0.04653126
229	0x3d9333c0	0.07187605
230	0x3b909e9b	0.0044134385
231	0x3ddcc38a	0.107794836
232	0xbe43a076	-0.1910418
233	0x3d48c4c1	0.049015764
234	0xbdd9f4ec	-0.10642418
235	0xbaaeb687	-0.0013329544
236	0xbd0e40d3	-0.03472979
237	0xbbd2e19c	-0.006435586
238	0x3c475e75	0.012168516
239	0x3dad7112	0.08468832
240	0xbe3575a2	-0.17720655
241	0xbe43c858	-0.19119394
242	0x3d80591c	0.06266996
243	0x3c9cf501	0.019159796
244	0x3e06ab42	0.13151267
245	0xbe13211a	-0.14368096
246	0x3df7f5a7	0.12107401
247	0x3e07f88c	0.13278407
248	0xbde42df5	-0.11141578
249	0x3da6b653	0.08140244
250	0xba795f66	-0.00095128117
251	0x3e15c01e	0.14624068
252	0x3cbc0629	0.022952156
253	0xbcf55fd9	-0.02995293
254	0x3ce29533	0.027659034
255	0xbcc58b35	-0.02411423
